model/model.pth (torch, 17216 bytes, 4 tensors)

linear1.weight f4 [256, 11]
000000 98 fa 68 bd ab 8d 97 be 85 3d 3b be 50 83 90 3c
       -0.05687961 -0.29600272 -0.18285187 0.01764074
000010 88 7b 87 3d 30 f4 83 bc 8e bc b2 bd 56 15 ef bd
       0.066153586 -0.016107649 -0.0872737 -0.116739914
000020 bc d0 6c bd 92 ab d5 bd e0 4e 66 3e 10 97 95 3e
       -0.057816252 -0.10433115 0.22491026 0.29216814
000030 6c 25 97 bd c0 02 a6 3b c8 0e 12 be f8 da 55 3d
       -0.073801845 0.005066246 -0.14263451 0.052210778
000040 2e 33 2b 3e b8 7e e2 3d 09 ab 40 be 10 9d be 3c
       0.16718742 0.11059326 -0.18815245 0.023268253
000050 f8 b7 61 3e 6c 12 9e bd 3c 7c 89 be 2d 18 90 be
       0.22042835 -0.077183574 -0.26852596 -0.28143445
000060 30 9e 08 3d 02 bf 65 be 9c 9e 32 be 4e 3d 3d be
       0.033353984 -0.22436145 -0.17443317 -0.18480417
000070 ec bb 4d 3e c4 f4 68 3e 28 9c 7a 3e 00 aa b7 3c
       0.20091218 0.2274962 0.24473631 0.02241993
000080 12 80 db bd 34 56 a6 3d 0d 25 0c be 12 29 65 be
       -0.10717787 0.08121911 -0.13686009 -0.22378948
000090 ec bb 8f 3e ce 4f 92 3e 9e c0 17 be 80 0d 1c 3b
       0.2807306 0.2857651 -0.14819571 0.0023811758
0000a0 aa d5 83 be 7d 54 3e be d6 73 3f 3e 00 7b a2 3a
       -0.2574895 -0.18586917 0.18696532 0.0012396276
0000b0 29 f5 87 be 10 70 95 3e 6c 47 a9 3d c2 81 11 be
       -0.2655423 0.2918706 0.08265576 -0.14209655
0000c0 cc 78 91 3d e6 05 80 be 09 c0 85 be ce 4a 94 be
       0.07103118 -0.250045 -0.26123074 -0.2896332
0000d0 7e f5 96 be ea 25 09 3e d0 b3 4e 3d 29 6a 73 be
       -0.2948417 0.1339337 0.05046445 -0.23770966
0000e0 74 b3 95 3e 47 ee 1c be 1e de 2b 3e 4f 6b 5a be
       0.29238474 -0.1532527 0.1678395 -0.21329997
0000f0 42 89 5e be 6a 26 1d 3e 5a 27 11 3e 0e c2 6b be
       -0.21732047 0.15346685 0.14175168 -0.23023245
000100 70 8d e0 3d ee 79 fb bd 64 d3 1f be 90 5a 8a be
       0.10964477 -0.122791156 -0.15607983 -0.2702222
000110 e8 a1 8d 3e 00 9d 7e 3c 70 15 9c 3c 5e ee 3c 3e
       0.27662587 0.015540361 0.019053191 0.18450305
000120 24 a4 0a 3e e0 9a 41 3e e2 07 8b 3e 3b 7b 8f be
       0.13539177 0.18906736 0.27154452 -0.28023705
000130 50 8a 8b 3d 4c f8 ee bd 88 41 68 3e c4 61 54 bd
       0.068134904 -0.116684526 0.22681248 -0.05185105
000140 30 8e 0d bd 79 26 10 be 9d 78 51 be 34 40 04 3e
       -0.03455943 -0.14077176 -0.20456167 0.12915117
000150 c0 d3 6f 3e 82 6e 1b 3e ae f9 97 3e c0 48 24 3c
       0.2342062 0.15178874 0.29682678 0.010027111
000160 ba f6 2b 3e cc 4c d5 3d 54 06 89 3e c1 a1 94 be
       0.16793337 0.104150385 0.2676264 -0.29029658
000170 a0 61 69 3e 00 21 ad bb c6 59 26 3e 07 71 87 be
       0.22791147 -0.005283475 0.16245183 -0.2645342
000180 60 65 28 3d 78 fa 74 3e 24 34 de 3d d4 03 9a be
       0.041112304 0.23923671 0.10849789 -0.30081046
000190 40 b7 c8 3c 0c 19 83 be da 7e 39 be c0 42 6f be
       0.024501443 -0.25605047 -0.18114796 -0.23365307
0001a0 e2 6e 27 be cd b4 99 be 86 9d 3b be b0 92 75 be
       -0.16350892 -0.30020753 -0.18321809 -0.23981738
0001b0 70 c9 03 3d ee e0 82 3e 4a 2c 8a be 34 e7 73 3e
       0.032174528 0.25562233 -0.26986915 0.23818666
0001c0 4c 6f f0 bd da 1d 9a 3e 31 10 15 be 44 93 fc 3d
       -0.11739978 0.301009 -0.14556958 0.12332776
0001d0 d6 30 84 be 2e fb 21 3e a6 e1 c0 bd 35 30 5d be
       -0.2581851 0.15818474 -0.09418039 -0.21600421
0001e0 40 f5 59 3c f8 23 60 3e 88 a6 7d bd 9b c8 63 be
       0.013303101 0.21888721 -0.061926395 -0.22244494
0001f0 bc ff b1 3d 48 cc 63 3d ec 91 5d 3e cc 7e a9 bd
       0.086913556 0.05561474 0.21637696 -0.08276138
000200 c2 1e 83 3e d2 da 60 be 68 13 e4 bd 87 94 92 be
       0.25609404 -0.21958473 -0.11136514 -0.28628942
000210 aa da 5c be 8c 8f 55 3e 32 06 55 be a1 97 1b be
       -0.21567789 0.2085554 -0.20803145 -0.1519456
000220 5e 61 98 3e 2e 79 66 be 38 4c d1 3d 68 76 04 3d
       0.29761785 -0.22507164 0.10219616 0.032339483
000230 8c b7 0a 3e 60 51 1a 3c fa 2b 8d 3e d5 3b 01 be
       0.1354658 0.009418815 0.27572614 -0.1262048
000240 b8 3b af 3d fe 6a 84 be 28 81 5e be 8c 23 68 3e
       0.08556312 -0.2586288 -0.21728957 0.2266981
000250 18 c7 64 3e 64 6e 7a 3e e0 83 12 bc 6c 80 8d 3e
       0.22341573 0.24456173 -0.008942574 0.2763704
000260 ae 33 81 3e 00 03 79 bd 63 f4 1a be 7e 7c 29 be
       0.2523474 -0.060793877 -0.15132289 -0.16551396
000270 60 78 62 3e f7 44 1a be 60 9e 51 3d 46 0a 84 3e
       0.22116232 -0.1506537 0.05117643 0.25789088
000280 dd 3c 97 be 96 a4 8e 3e ec 9a 31 be ab e6 92 be
       -0.29538622 0.27859944 -0.17344254 -0.2869161
000290 ca 60 6c be 98 20 9e bd 04 d0 93 3e 86 05 41 be
       -0.23083797 -0.077210605 0.2886964 -0.18849763
0002a0 04 db 85 3d 4c a4 63 3e 4c 77 81 3d 02 d5 8f be
       0.065359145 0.22230643 0.06321582 -0.280922
0002b0 ba 7f 72 be b0 a9 75 be 20 0c 4d bc 8c ae fa 3d
       -0.23681536 -0.23990512 -0.012515098 0.122403234
0002c0 fc ab 35 be e0 b6 9e bd 52 ef e4 bd 92 3e d3 bd
       -0.17741388 -0.077497244 -0.11178459 -0.10314669
0002d0 be 1a 22 3e 68 fa c1 3d 1e aa 43 3e 00 f8 8e ba
       0.15830514 0.09471589 0.19107863 -0.001090765
0002e0 3b 12 8b be 40 93 47 bd 20 55 50 be 25 5e 86 be
       -0.27162346 -0.048724413 -0.20344973 -0.26243702
0002f0 94 68 80 bd 14 98 5d 3e 42 88 74 be 83 e0 5f be
       -0.06269947 0.21640044 -0.23880103 -0.21862988
000300 6c ce 1d 3e e0 2b fa bc 02 db 8c bd dc 77 99 3e
       0.15410775 -0.0305385 -0.0687771 0.29974258
000310 80 0f 9c 3d c6 d0 5f be 8a 6a 06 be 30 10 36 bd
       0.07620144 -0.21856984 -0.13126579 -0.04444903
000320 00 93 63 3e 1e 93 ed bd 67 5c 8a be 9a e3 00 3e
       0.22224045 -0.11600326 -0.27023622 0.12586823
000330 20 2a 53 3c 1c f3 5c 3e a0 0f 40 be 60 7d 1a bc
       0.012888461 0.21577114 -0.1875596 -0.009429306
000340 6a 94 aa bd a0 f4 47 bc f4 e0 ba 3d 24 ff 66 be
       -0.08329089 -0.012204319 0.09124938 -0.22558266
000350 30 7b f8 bc 24 b3 53 3e fe ec bf bd 50 36 f0 3d
       -0.030332178 0.20673805 -0.093713745 0.11729109
000360 e8 07 44 3e c2 fb 89 3e 72 8d 39 3e e8 f0 5e 3e
       0.19143641 0.26949888 0.18120363 0.21771586
000370 60 41 c0 bd 98 2c 5e 3e f9 1f 61 be 68 48 9c 3d
       -0.09387469 0.21696699 -0.21984853 0.07630998
000380 fe fb 29 be ce fe 90 3e da 7a 1b 3e 53 c1 04 be
       -0.16600034 0.283194 0.15183583 -0.12964372
000390 29 0e 95 be b8 5d 69 3d b2 1e 83 bd c0 d4 91 bb
       -0.29112366 0.056974143 -0.06402339 -0.0044504106
0003a0 c8 21 5b 3e 20 d0 a6 3c a4 40 09 3e 2c df 8d be
       0.21399605 0.020362914 0.13403565 -0.2770933
0003b0 37 66 79 be 30 5b 7b 3e 7c bd 10 be f4 b6 ea bd
       -0.24355398 0.24546504 -0.14134783 -0.11460677
0003c0 1c 47 00 be 2c 3d 5c 3e 46 25 8f 3e 98 9c eb 3d
       -0.12527126 0.2150771 0.27958125 0.11504477
0003d0 bc 2d 52 3e 40 30 1d 3e f1 fc 49 be f6 b4 0c 3e
       0.20525259 0.15350437 -0.19725396 0.13740906
0003e0 00 f4 5c ba c8 87 4b be 56 11 ab bd b0 d5 56 be
       -0.0008428693 -0.19876015 -0.08352916 -0.20979953
0003f0 9a b0 8c bd 98 35 7c 3e 84 3f bc 3d 9e 21 80 3e
       -0.068696216 0.2462982 0.09191802 0.25025648

linear1.bias f4 [256]
000000 20 f9 32 3d 60 47 eb bd 58 d3 8d 3e e0 51 e4 bd
       0.043694615 -0.11488223 0.27700305 -0.11148429
000010 78 b6 73 3e 94 5e ac 3d 4f 2c 12 be 44 c6 24 be
       0.23800075 0.08416477 -0.14274715 -0.16091257
000020 5a 65 2e be cc e0 ed bd 90 43 45 be 12 f2 a7 bd
       -0.1703085 -0.11615142 -0.19264054 -0.08200468
000030 14 7f ea 3d 08 6c 4c 3e f0 81 d6 bd 80 e1 3c 3d
       0.114500195 0.19963086 -0.10474002 0.04611349
000040 9e 15 15 3e 7e c7 11 be 48 ef 4f be 3a 62 89 be
       0.14559028 -0.14236256 -0.20306122 -0.26832753
000050 0b 5b 94 be c0 33 31 3e 08 10 e4 3d 2a 4e e2 bd
       -0.2897571 0.17304897 0.1113587 -0.11050065
000060 c2 ac 4e be e0 53 d0 bd a7 15 88 be 70 a9 e6 3c
       -0.2018309 -0.10172248 -0.2657902 0.028156966
000070 5b c6 8c be 51 cf 82 be 76 44 6a be a2 87 3e 3e
       -0.27495083 -0.25548795 -0.22877678 0.18606427
000080 7a 07 84 3e 57 2f 89 be 1c 79 bb bd 70 ee 69 be
       0.25786954 -0.2679393 -0.09153959 -0.22844863
000090 40 e1 1b bd 58 ad 75 3d 18 d5 7e 3e fc cb 94 be
       -0.038056612 0.059979767 0.24885976 -0.29061878
0000a0 00 0b 91 be 80 8f 8e be c8 36 83 3d 9a 29 89 3e
       -0.28328705 -0.27843857 0.06406933 0.26789552
0000b0 2e 4f 00 3e 42 8e 29 3e 3e 0f ee bd b8 29 17 3e
       0.12530205 0.16558173 -0.11624001 0.14762008
0000c0 c6 d7 2c 3e 78 25 82 3e d0 5b fc 3d 38 dc c0 3d
       0.16879186 0.2541921 0.12322199 0.094170034
0000d0 dc f5 65 3e ac bf 7a 3e 20 42 e5 bd f4 8d 1e 3e
       0.22457069 0.2448718 -0.11194253 0.15483838
0000e0 d2 b9 42 3e 28 e0 5e 3d e8 01 9b bd e8 74 e1 bd
       0.19016197 0.05441299 -0.07568723 -0.11008626
0000f0 f8 c6 fe 3d 80 e5 2d 3d 50 50 1b 3e fc 16 5c 3e
       0.12440294 0.042455196 0.15167356 0.21493143
000100 60 33 7c 3c f2 96 98 3e 88 82 71 be 88 36 55 be
       0.015393108 0.29802662 -0.2358495 -0.20821583
000110 78 31 f7 bd bc b2 8b bd 40 a3 04 bc 00 3c 59 bc
       -0.12069982 -0.068212 -0.008095562 -0.013258934
000120 10 d3 c5 3c fc d7 a3 3d b8 67 e2 3d 10 0b 74 3d
       0.024148494 0.0800018 0.11054939 0.059580863
000130 2c 7b 9c 3d d0 13 af bd 2c ba c6 3d 1a ab f5 bd
       0.07640681 -0.08548701 0.09703478 -0.11995526
000140 e4 8a 48 3e a0 c6 c5 3c c0 08 49 3d 12 30 2b 3e
       0.19584233 0.024142563 0.04908061 0.16717556
000150 a8 45 27 3e c8 cc 12 bd da 60 a7 bd 40 cf 18 bc
       0.16335166 -0.035839826 -0.0817277 -0.009326756
000160 a4 0a d9 bd b0 d0 f9 3c 84 64 3e be b5 b2 8d be
       -0.10597733 0.030495018 -0.18593031 -0.27675405
000170 b0 1b 03 3e ce b6 28 be ca 96 81 be d4 60 42 3e
       0.1280353 -0.16475984 -0.25310355 0.1898225
000180 16 fb 8d 3e 18 73 30 3e 2a 53 08 be 10 66 ee bc
       0.27730626 0.17231405 -0.13312975 -0.029101402
000190 88 3e b8 bd f0 a9 4c bd 3a af 86 be 44 0d 86 3e
       -0.08996302 -0.049966753 -0.26305562 0.26181996
0001a0 11 55 45 be e4 21 2f 3e 04 b8 dc bd b8 9d 51 3e
       -0.19270732 0.17102772 -0.10777286 0.20470321
0001b0 95 df 95 be df e6 80 be 9c d8 81 bd 5e 06 4f be
       -0.29272142 -0.2517614 -0.06340143 -0.20217273
0001c0 90 55 99 3d 00 00 55 3c 25 f3 1b be c0 ad 49 3c
       0.07487023 0.013000488 -0.15229471 0.012309492
0001d0 60 74 24 3d 9c 54 44 3e ce db 6a be 18 5c 22 3d
       0.040150046 0.19172901 -0.22935411 0.03963861
0001e0 e8 b4 7c 3e 40 3c b3 3b fc 8f 71 3e f0 87 e5 3d
       0.24678385 0.005469829 0.23590082 0.11207569
0001f0 dc 99 93 be 64 8a b3 3d fc ce 4d 3e a0 88 11 3d
       -0.28828323 0.0876663 0.2009849 0.035530686
000200 30 0c 06 3e b0 ca 1b 3e 8c 3b 8d bd 60 d9 a5 3d
       0.13090587 0.15214038 -0.06896123 0.080981016
000210 60 b4 58 3e aa 3c f9 bd 58 f3 55 3d f4 97 5f be
       0.21162558 -0.12169774 0.052234024 -0.2183531
000220 f8 ea 3f bd ec 5e 4d 3e 70 fc aa bd b8 eb 80 3d
       -0.046854943 0.20055741 -0.0834893 0.0629496
000230 9c d3 38 be f8 d4 7b 3d 28 be 6b 3e f0 ea 00 bd
       -0.18049473 0.0614824 0.23021758 -0.031474054
000240 9c 33 35 3e 60 31 63 bc e0 88 ef 3c 68 a7 f3 bd
       0.17695469 -0.013866752 0.029240072 -0.118971646
000250 82 39 84 bd 08 79 3b 3e 22 18 9e bd a0 7c 78 3d
       -0.06456281 0.18307889 -0.07719447 0.060665727
000260 02 93 8c 3e a8 3e 3b bd 72 2e 8a 3e 60 33 fd 3c
       0.27455908 -0.04571405 0.2698856 0.030908287
000270 80 81 8b bb 95 a1 01 be 88 b3 14 be 80 53 4c bc
       -0.004257381 -0.12659295 -0.1452161 -0.01247108
000280 4a 81 33 be c8 39 b6 bd 50 19 2a bd b4 1a 4e 3e
       -0.17529789 -0.0889774 -0.041528046 0.20127374
000290 d0 9e 06 bd 34 a4 4a be e3 75 67 be 21 78 86 be
       -0.0328663 -0.19789201 -0.22603564 -0.26263526
0002a0 5a e7 b3 bd 48 54 7b be 40 9a 69 3c 38 38 dd 3d
       -0.08784361 -0.2454387 0.0142579675 0.108017385
0002b0 78 27 6b 3e 24 06 88 3e a0 cd 23 3d 0f 62 61 be
       0.22964275 0.26567185 0.03999102 -0.22010063
0002c0 90 15 0c 3e 9e 86 28 3e c0 6f e6 3c d8 d3 23 3e
       0.136801 0.16457602 0.028129458 0.1599878
0002d0 f0 ed 6c 3e 33 9f 05 be f0 18 b6 3d fe 82 89 3e
       0.23137641 -0.13049011 0.08891475 0.26857752
0002e0 30 81 46 bd 15 a8 14 be 48 a6 b4 bd 52 c9 07 3e
       -0.048463047 -0.14517243 -0.08820778 0.13260391
0002f0 f8 9b 25 3e 17 90 93 be 60 dc 46 3c 90 4a 94 3e
       0.16172779 -0.2882087 0.012137502 0.28963137
000300 80 e5 d8 bb 30 15 75 3e a8 2a a2 3d a0 0b 2e bd
       -0.0066191554 0.23933864 0.07918292 -0.042491555
000310 f8 25 57 3d 60 b9 a7 3c 50 02 1e 3e c4 17 0b 3e
       0.052526444 0.020474136 0.1543057 0.13583285
000320 70 2b 71 3e 54 9b a9 3d 4c ad 14 3e 34 90 51 3e
       0.23551726 0.082815796 0.14519233 0.20465165
000330 aa 35 66 be 08 ca d2 bd 80 b6 d8 bd 4a 96 8e 3e
       -0.22481409 -0.10292441 -0.10581684 0.27849036
000340 74 2a 58 3e 80 37 d5 3d 94 48 3e 3e d4 d6 6c 3e
       0.21109945 0.104109764 0.18582374 0.23128825
000350 4c ae 99 3d 16 f7 b3 bd ca b4 88 be 00 7f 2b be
       0.075039476 -0.08787362 -0.2670043 -0.16747665
000360 28 5c 7a 3e 6c ac 07 be 50 d7 64 3e 70 4a d0 3c
       0.24449217 -0.13249367 0.2234776 0.02542612
000370 00 4a 4b bd 70 9f f8 3d 39 76 93 be 85 d2 2b be
       -0.04963112 0.12139785 -0.28801134 -0.16779526
000380 fc a6 2d 3e 60 c7 87 3c d8 38 49 be 44 f8 7d 3e
       0.1695823 0.016574562 -0.1965059 0.24801737
000390 e0 d2 a2 3c a0 e3 83 3d 40 ca 4c 3d 4e 49 80 3e
       0.019875944 0.064399004 0.049997568 0.25055927
0003a0 90 be 5d 3e 02 88 93 3e e0 4c 21 3d 34 26 42 3e
       0.21654725 0.28814703 0.039379954 0.18959886
0003b0 48 4e ad bd 84 98 5f 3e c0 18 1f bc f8 ce 8f 3d
       -0.084621966 0.21835524 -0.009710491 0.07021898
0003c0 48 29 d6 3d 6a fa 14 3e c6 96 93 3e 9a 66 35 be
       0.104570925 0.1454865 0.28825969 -0.1771492
0003d0 a0 ad 94 3d 64 03 7d bd 23 1c 6a be a0 c9 5a be
       0.07259679 -0.06177081 -0.22862296 -0.21365976
0003e0 a0 6c 53 3e d8 c6 82 3e 94 a6 86 3e 41 7a 06 be
       0.20646906 0.2554233 0.26298964 -0.13132574
0003f0 98 34 d1 3d c6 34 a6 bd b4 e8 7c bd 23 98 7a be
       0.102151096 -0.081155345 -0.06174536 -0.24472098

linear2.weight f4 [3, 256]
000000 d2 a9 1a bd 18 6e 5a bd 24 d4 c0 bc c8 b7 05 bd
       -0.03775961 -0.05332765 -0.023538657 -0.03264597
000010 d6 3e 40 3d bc 8b f5 bc 98 7d b8 bc 78 84 c0 3c
       0.046934925 -0.029973857 -0.022520825 0.023500666
000020 32 34 77 bd 12 c1 5d bd 04 6e c8 3c 70 b5 f6 bc
       -0.06035251 -0.054139204 0.024466522 -0.030115813
000030 48 e2 69 3c 58 da d1 3c b0 78 0f 3d 60 38 ad bb
       0.014275141 0.02561681 0.035027206 -0.0052862614
000040 40 f0 e6 bb 5c db 38 bd 94 dd 07 bd 20 29 b3 3c
       -0.007047683 -0.045131072 -0.033170298 0.021870196
000050 56 27 36 3d b8 71 d3 3c 68 d9 4e 3c 78 a7 39 bd
       0.044471107 0.025811061 0.012625076 -0.045325726
000060 d6 08 42 bd 84 7a 1d 3d 40 85 44 bc 78 22 69 bc
       -0.047371708 0.038446918 -0.01199466 -0.014229409
000070 a0 69 57 3c 90 fe 86 bc 28 32 cb 3c 30 5c e9 bc
       0.013147742 -0.016478807 0.02480419 -0.028486341
000080 b0 ba 9f bb 10 a7 67 bc 38 62 4e bc f4 63 53 bd
       -0.00487455 -0.014138952 -0.012596659 -0.051608995
000090 70 0f 1e 3c 08 a2 b7 bc 8c 3c dd bc 90 64 40 bc
       0.009647235 -0.02241613 -0.02700641 -0.011742726
0000a0 70 02 1a 3c e0 7d 23 bd 4e 98 75 bd 44 dc a2 3c
       0.009399995 -0.039914966 -0.059959702 0.019880421
0000b0 80 f1 11 ba 8c 55 9c 3c 30 7d 2b bd 72 d6 24 3d
       -0.00055672973 0.01908376 -0.041867435 0.040243573
0000c0 68 a4 f5 3c 8c b4 b3 bc 9e 11 0e bd 2c 2f 62 bd
       0.029985622 -0.021936677 -0.03468477 -0.055220768
0000d0 24 35 59 3d 78 8a 68 3c 60 84 da 3b 7e 17 53 bd
       0.053029194 0.01419317 0.0066686124 -0.051536076
0000e0 40 02 d8 3b 74 a0 f4 bc 58 a7 bb bc 08 08 21 3c
       0.006592065 -0.029861666 -0.022906944 0.009828575
0000f0 64 3f 49 bd f6 af 35 bd 94 5b 90 3c 30 f9 dc bc
       -0.04913272 -0.044357263 0.017621793 -0.02697429
000100 1e c2 3d 3d 60 67 6f bb cc c4 7f bd e0 6e 84 bb
       0.046327703 -0.0036530122 -0.06244354 -0.0040415376
000110 58 28 29 3d ee 57 1d 3d 26 b0 1e 3d 64 16 9c 3c
       0.04129824 0.038413934 0.038742207 0.019053645
000120 66 af 62 3d c0 d9 2a bd 08 8b 04 bd f0 a4 70 bc
       0.055343054 -0.04171157 -0.032359153 -0.014687762
000130 f8 44 17 bd 76 a7 7e 3d 36 f9 38 3d 24 08 8e 3c
       -0.036931008 0.062171422 0.04515954 0.017337866
000140 cc 82 1e bd 2c 25 ad bc 8e a7 45 bd 56 99 10 3d
       -0.038698956 -0.021135889 -0.048255496 0.035302483
000150 84 b1 69 3d 7e 11 77 bd 48 a6 3b bc 80 d4 60 bb
       0.057054058 -0.060319416 -0.011453219 -0.0034306347
000160 28 fe 74 bd c4 eb bb bc 80 f2 42 bd c8 20 4e 3d
       -0.059812695 -0.02293957 -0.047594547 0.05032423
000170 1c 1f 7c bd e0 c4 47 3d 3a be 10 bd d0 52 0c 3c
       -0.061553106 0.04877174 -0.035337664 0.008564666
000180 10 d8 35 bd 00 be 78 3b 32 70 4d bd 08 a0 7d bd
       -0.044395506 0.0037955046 -0.050155826 -0.061920196
000190 e0 27 f7 3b 24 dd b7 bc 84 1f f9 3c c4 85 b3 bc
       0.0075425953 -0.022444315 0.030410536 -0.02191437
0001a0 a0 63 74 3b a0 1a 6f bb 5c 69 fa 3c b4 27 9c bc
       0.0037290826 -0.0036484376 0.030567817 -0.0190619
0001b0 84 c0 87 3c 30 f7 2f 3c 40 6f ff bb 34 cd 2d bd
       0.01657129 0.010740086 -0.0077952445 -0.042432025
0001c0 22 4f 1f bd e4 fb 51 bd 5c cd 41 3d 92 80 19 3d
       -0.038893826 -0.051265612 0.047314987 0.03747613
0001d0 94 5b 3f 3d 00 03 f3 3a a4 e8 02 bd b8 46 67 3c
       0.046718195 0.0018540323 -0.031960145 0.014115982
0001e0 70 91 48 3d d0 b7 47 3d 1c ac e7 3c c0 c3 ea 3b
       0.048966825 0.04875928 0.02828031 0.0071644485
0001f0 d4 3a f5 bc 20 12 14 bc 20 f6 4b 3b 70 9e 52 bd
       -0.029935278 -0.009037524 0.0031122044 -0.05142063
000200 58 ba 24 3d aa 53 5a 3d 74 96 d3 bc a2 5e 0a 3d
       0.040216774 0.053302445 -0.025828578 0.033781655
000210 8c 2b e7 bc 5c 5b 8c 3c d8 2d 00 3c 8a 9f 2e 3d
       -0.028219007 0.017133407 0.00782343 0.042632617
000220 88 2f ad 3c 82 e4 03 3d 30 2a c3 3c 40 94 82 3a
       0.021140829 0.032200344 0.023823828 0.0009962395
000230 70 db 6c 3c fa ea 16 3d d0 b1 30 bc ac 95 0e bd
       0.014456615 0.036845185 -0.010784581 -0.034810707
000240 bc eb f8 3c 32 12 24 bd 58 07 3d bd 00 57 17 ba
       0.030385844 -0.040056415 -0.04614958 -0.0005773157
000250 52 ec 34 3d 94 02 c4 bc 3e fb 10 bd dc 41 39 3d
       0.044170685 -0.02392701 -0.035395853 0.045228824
000260 26 96 4c bd fc 78 92 bc c0 e0 74 3c 78 8b 6e bc
       -0.04994788 -0.017879955 0.014946163 -0.014559619
000270 a8 c7 07 bd b8 d2 29 3c cc 70 c8 3c 44 c8 14 3d
       -0.03314939 0.010365181 0.024467848 0.0363238
000280 d4 d6 12 bd 40 f1 65 3b a0 1c 4e 3d 0a 72 79 bd
       -0.035849407 0.0035086423 0.050320268 -0.06089977
000290 aa a1 05 bd c8 6a 19 bc f8 10 3e 3c d8 2f 62 3d
       -0.032624878 -0.009363838 0.011600725 0.05522141
0002a0 2c 5f 2b bd 6a e8 73 3d 3a f1 73 3d b2 9d 3b bd
       -0.04183881 0.05954782 0.059556223 -0.045804687
0002b0 8a bd 57 3d d4 68 de bc 5e e6 47 3d 20 14 26 bd
       0.052670993 -0.027149595 0.04880368 -0.040546536
0002c0 f4 3d 8f bc fa bf 39 3d 98 53 b6 3c 14 61 d6 bc
       -0.017485596 0.0453491 0.022256657 -0.026169337
0002d0 d0 3c f1 3b c2 c5 36 bd e0 c9 ba 3b f0 9c e5 3c
       0.0073619857 -0.04462219 0.005700335 0.028028935
0002e0 fe f7 4e 3d e2 04 41 bd c4 79 6b 3d dc fb 18 3d
       0.050529473 -0.047123797 0.05748917 0.037349567
0002f0 40 ca 76 3d 0a 39 6a bd 1c d1 07 bd d2 a6 67 3d
       0.060251474 -0.057183303 -0.033158407 0.056555577
000300 c4 20 b1 3c 48 32 76 bd b4 7c 6b 3d b2 17 23 3d
       0.02162207 -0.060106546 0.057491973 0.03981752
000310 3a fd 45 3d f2 db 7a 3d a0 d3 28 bb 6e d1 4b 3d
       0.0483372 0.061244912 -0.0025760904 0.049760275
000320 00 6f f1 b9 a0 f0 52 bc 00 d8 27 3a 06 85 22 bd
       -0.00046049803 -0.012874752 0.0006402731 -0.039677642
000330 b4 0c 8a bc b8 c5 45 3c 2a aa 75 bd f0 36 6d 3c
       -0.01685176 0.012071066 -0.059976734 0.01447843
000340 00 d9 47 3a 48 08 2b 3d e8 6b 1b 3d 9c 6b 42 3d
       0.0007623583 0.041755944 0.037944704 0.047465906
000350 0c fd 27 3d f4 c9 84 3c 24 a6 22 bd 90 0c 63 3c
       0.04101281 0.01620958 -0.039709225 0.013857976
000360 64 67 fd bc 4c 9a b2 3c 60 5e eb bb 00 c5 ca 3a
       -0.03093309 0.02180209 -0.0071828812 0.0015470088
000370 6c 85 24 3d 00 bb 44 bc 48 b9 0f bd 04 44 a9 bc
       0.040166304 -0.012007475 -0.035088807 -0.020662315
000380 50 94 15 bc 60 84 da 3b d8 1d 3a 3c 14 73 e3 bc
       -0.009129599 0.0066686124 0.011359654 -0.027764834
000390 f6 56 0b 3d 98 a6 76 3d 24 ff 5f 3d 4c ec c2 3c
       0.03401848 0.06021747 0.05468668 0.023794316
0003a0 00 5f de 3b 38 95 0f 3c 42 b6 21 bd 8c 0f 9e 3c
       0.006786227 0.008763604 -0.039480455 0.019294523
0003b0 bc 65 af bc 18 61 7a bd 90 cf 6c 3c 8c 52 68 bd
       -0.021410815 -0.061127752 0.014453784 -0.056719348
0003c0 04 9b b2 3c 70 6d 27 bc 6c 3a eb bc 64 ec ec bc
       0.021802433 -0.010218963 -0.028714381 -0.028921314
0003d0 3c 1b d8 3c 14 b9 17 3d 74 4e ae bc 80 c4 c6 3b
       0.026380174 0.03704174 -0.021277644 0.006065905
0003e0 cc 46 e5 bc 00 7c 3d ba 84 64 5d 3d e0 80 18 bb
       -0.02798786 -0.0007228255 0.054050937 -0.0023270175
0003f0 c0 53 1d bb 1c 7c 4a bd b0 29 83 3b 20 e3 25 3d
       -0.0024006218 -0.049434766 0.0040027723 0.040499806

linear2.bias f4 [3]
000000 30 cd 2b 3c 74 28 b6 bc 40 21 88 bb
       0.010485932 -0.022236086 -0.0041543543
