model/model.pth (torch, 17216 bytes, 4 tensors)

linear1.weight f4 [256, 11]
0.11301037 0.013645816 0.29154578 -0.07720603 0.08468514 0.13959682 0.18626595 -0.05573006
-0.17836136 0.103963464 -0.07134067 0.016203431 -0.002148475 0.032428402 0.14409797 0.09076383
-0.21057612 -0.102123156 -0.1727203 0.2270356 0.2601493 -0.15278079 0.042098425 -0.0958191
-0.28872064 -0.060694683 -0.14760068 -0.24432464 0.32789978 0.20238142 -0.2147335 -0.16960369
-0.1944417 -0.27284133 0.02222776 0.024231426 0.13749737 -0.018564861 0.15079576 0.16805802
0.12501039 -0.20981869 -0.11301409 -0.13269219 -0.29795763 0.100084536 -0.28769717 0.17152135
-0.02795516 -0.107781805 0.19784534 0.2164264 -0.1769496 0.17433363 -0.24750558 -0.2595855
0.18879952 0.04596371 0.15410118 -0.110738076 -0.056295373 -0.12053623 -0.16574012 -0.020639574
0.08857309 -0.30392426 0.113032855 0.25560394 -0.018968994 -0.19807912 -0.08904395 -0.1161529
-0.16641912 0.13586062 0.094695985 -0.04829873 0.2802627 0.23561206 -0.021110594 -0.14537501
-0.26674682 -0.22939283 0.06017015 -0.26038307 0.044552296 -0.011373998 -0.23108563 -0.13703588
0.22168314 0.15778317 -0.01104694 0.010058028 0.018493056 -0.14998454 -0.009523898 -0.29109815
-0.20603636 -0.10864099 -0.24737221 -0.010263354 -0.11412592 0.12540877 0.14339525 -0.13673793
0.17504553 0.20400345 -0.15563524 -0.14299828 0.08027198 0.024581483 0.3036415 0.004955195
0.22425885 0.07703866 -0.23251823 -0.16039346 -0.030253517 0.026434522 0.13582517 -0.037648145
0.3456338 0.22197936 0.08145234 -0.011097536 0.26630136 0.21801262 0.2848771 -0.02719695
-0.17396544 0.21250355 -0.24298145 0.15871604 0.118872076 0.031135768 -0.21309507 -0.26834276
-0.07678622 -0.051294714 -0.23810388 -0.25502425 -0.23304361 0.28839642 0.082920164 -0.18504062
0.00506408 -0.17072235 0.020963535 -0.00442661 0.14838451 0.12643103 0.20215926 -0.29381338
0.1973679 -0.06076728 -0.024690358 0.13559866 -0.17081861 0.15091057 -0.13621226 0.16114105
-0.23356989 0.24469127 0.20485567 -0.26963028 -0.02428312 0.23476489 0.090148024 -0.258446
0.14582317 -0.16464554 -0.19242531 -0.072759464 -0.20484884 0.27315187 0.15275943 -0.2153624
0.12767811 0.197337 0.25825307 -0.25381795 0.047312442 0.23460652 -0.24757573 0.29331332
0.18803643 0.19055375 -0.2689914 -0.23682769 0.10607354 0.10395065 -0.29747507 0.038772445
-0.16094778 -0.034762967 -0.28578332 -0.052976012 -0.14633268 0.20814557 0.05753894 -0.17184918
-0.14818625 0.28800136 -0.18655941 -0.22447374 -0.06535352 -0.15584482 0.25467545 -0.110393435
-0.30425552 0.06457502 -0.17790191 0.058781996 0.12535717 -0.2988825 0.039349128 -0.29352698
-0.26199135 0.10760937 -0.116181955 -0.03517506 0.028046712 -0.24092254 0.1016966 -0.009172545
0.028950892 -0.08474626 0.10509014 -0.089662194 0.2544956 -0.04880119 -0.19860244 0.20346022
-0.06903827 -0.18846096 0.10568753 0.14256366 -0.021783838 0.26258063 -0.15940668 0.057443887
0.06958934 0.060252436 -0.17037946 0.20986739 0.18140854 -0.058628846 0.32452515 -0.08054916
-0.094313554 0.005864758 -0.039334424 -0.23278499 0.09894392 -0.21247105 -0.057926133 -0.14730217
00000000: fb71 e73d b392 5f3c 7d45 953e 321e 9ebd
00000010: 676f ad3d 78f2 0e3e 80bc 3e3e 3445 64bd
00000020: 5ca4 36be ccea d43d 0f1b 92bd 0fbd 843c
00000030: 6ecd 0cbb a5d3 043d 6b8e 133e 63e2 b93d
00000040: 44a1 57be f225 d1bd 97dd 30be 057c 683e
00000050: 4a32 853e 9172 1cbe 666f 2c3d ce3c c4bd
00000060: 31d3 93be fd9a 78bd a224 17be 3d30 7abe
00000070: 7be2 a73e 133d 4f3e 19e3 5bbe 97ac 2dbe
00000080: ba1b 47be dcb1 8bbe fe16 b63c fc80 c63c
00000090: 1ccc 0c3e 5615 98bc 346a 1a3e 6717 2c3e
000000a0: b902 003e b6da 56be ee73 e7bd 76e0 07be
000000b0: e78d 98be 1ff9 cc3d 0b4d 93be 4ba3 2f3e
000000c0: 3802 e5bc b5bc dcbd f897 4a3e e29e 5d3e
000000d0: 4732 35be 8484 323e 1a72 7dbe 64e8 84be
000000e0: a954 413e 7144 3c3d b3cc 1d3e a5ca e2bd
000000f0: fa95 66bd b3db f6bd c7b7 29be 5314 a9bc
00000100: cf65 b53d f69b 9bbe c57d e73d 85de 823e
00000110: dd64 9bbc 41d5 4abe ad5c b6bd 92e1 edbd
00000120: c669 2abe 0c1f 0b3e f8ef c13d e4d4 45bd
00000130: 987e 8f3e 4a44 713e 20f0 acbc 30dd 14be
00000140: 0a93 88be f4e5 6abe fa74 763d ee50 85be
00000150: 787c 363d 015a 3abc b6a1 6cbe 2253 0cbe
00000160: e800 633e e991 213e 3afe 34bc 6dca 243c
00000170: c07e 973c 8c95 19be 200a 1cbc d10a 95be
00000180: 32fb 52be 2b7f debd 244f 7dbe a027 28bc
00000190: daba e9bd 286b 003e 34d6 123e 0705 0cbe
000001a0: 233f 333e 48e6 503e d85e 1fbe 246e 12be
000001b0: a365 a43d 1b5f c93c e676 9b3e 305f a23b
000001c0: 1da4 653e 72c6 9d3d 4219 6ebe 2f3e 24be
000001d0: 39d6 f7bc 368d d83c c115 0b3e f134 1abd
000001e0: eaf6 b03e 8f4e 633e 7cd0 a63d 71d2 35bc
000001f0: a758 883e b33e 5f3e 69db 913e 23cc debc
00000200: ff23 32be 889a 593e 21d0 78be 7586 223e
00000210: 3473 f33d 7010 ff3c 9835 5abe 3964 89be
00000220: 1842 9dbd 681a 52bd 81d1 73be 8a92 82be
00000230: fca2 6ebe b2a8 933e 0cd2 a93d 4a7b 3dbe
00000240: 95f0 a53b d7d1 2ebe b8bb ab3c 190d 91bb
00000250: 1cf2 173e 2377 013e d602 4f3e b56e 96be
00000260: d01a 4a3e 1de7 78bd 6f43 cabc 60da 0a3e
00000270: 13eb 2ebe 4d88 1a3e 3a7b 0bbe 2902 253e
00000280: f22c 6fbe 5990 7a3e afc5 513e fb0c 8abe
00000290: 65ed c6bc 3566 703e 879f b83d 0953 84be
000002a0: ab52 153e d798 28be 240b 45be ea02 95bd
000002b0: e5c3 51be 90da 8b3e f86c 1c3e f687 5cbe
000002c0: 0dbe 023e b612 4a3e bf39 843e 6df4 81be
000002d0: b1ca 413d b13c 703e 7e84 7dbe 2a2d 963e
000002e0: 9f8c 403e 8620 433e 3eb9 89be f582 72be
000002f0: 163d d93d 14e4 d43d a74e 98be dbcf 1e3d
00000300: 7fcf 24be 9d63 0ebd 3152 92be 60fd 58bd
00000310: 3cd8 15be 1d24 553e f4ad 6b3d 3bf9 2fbe
00000320: 23be 17be ea74 933e 6e09 3fbe 72dc 65be
00000330: 11d8 85bd c995 1fbe d264 823e f415 e2bd
00000340: 61c7 9bbe e83f 843d eb2b 36be 64c5 703d
00000350: a15d 003e 2107 99be 8d2c 213d 2b49 96be
00000360: bb23 86be 4d62 dc3d cef0 edbd b913 10bd
00000370: 38c2 e53c 66b4 76be 4f46 d03d 7148 16bc
00000380: 6c2a ed3c 728f adbd 8039 d73d d0a0 b7bd
00000390: 3f4d 823e c2e3 47bd 705e 4bbe e057 503e
000003a0: f063 8dbd e9fb 40be b472 d83d 35fc 113e
000003b0: 0574 b2bc f870 863e 813b 23be 484a 6b3d
000003c0: db84 8e3d 42cb 763d f477 2ebe 7ae7 563e
000003d0: 29c3 393e cd24 70bd 2928 a63e f5f6 a4bd
000003e0: 7727 c1bd 282d c03b 221d 21bd 305f 6ebe
000003f0: 1ca3 ca3d 0392 59be f443 6dbd 61d6 16be

linear1.bias f4 [256]
-0.007855277 0.3179266 0.025778685 -0.0076057375 -0.082924284 0.08767827 0.25813287 -0.17567834
0.054068785 -0.23748474 -0.13627304 -0.0627261 -0.09522931 0.03537578 -0.16120523 -0.07100925
-0.22849043 -0.09689835 0.03394736 -0.20724517 -0.09232127 0.04679663 0.23925279 -0.28683236
-0.116830006 0.10444248 0.15880689 0.0017964063 0.012272724 0.15722062 0.30796486 -0.059186634
0.025448201 0.11759985 -0.20063761 -0.101302944 -0.31677487 -0.09218351 -0.22854814 0.18152374
-0.10070461 0.27495876 -0.12641329 -0.20634015 0.31520697 0.27642217 -0.114748806 -0.28295305
-0.20611514 0.026931066 -0.28056332 0.16115943 -0.14058176 0.00015790865 0.07523666 -0.22519755
0.1518971 -0.08593966 0.15803261 0.21400909 0.24081206 -0.1338979 0.26446602 0.11897644
-0.30890805 0.21506979 0.01662956 -0.19261113 -0.13261688 -0.14719026 0.28509077 0.086654425
0.20602569 -0.11260852 -0.18170892 -0.15737757 0.073403984 0.29172972 -0.120860286 -0.27587882
-0.29033858 0.054425362 0.16661184 -0.13675767 0.08798634 -0.1533313 0.1998226 -0.34184796
-0.22200532 0.16648135 -0.060524456 -0.29411787 -0.2828789 -0.12281118 -0.16471499 0.072020665
-0.29159313 -0.04511044 0.14686273 0.061149128 0.061981224 -0.2823031 -0.09770756 0.21854657
0.13993694 -0.003497303 -0.2540532 0.22801076 -0.22775231 -0.2910391 0.08766862 0.04458008
0.04398046 0.3140555 0.089042984 -0.26166958 0.23358323 -0.15943485 0.08487687 0.33183226
0.20882602 0.16278192 -0.0410535 -0.11638535 0.12367425 -0.27760267 0.16294259 0.2160483
-0.18204305 -0.22854987 0.07521976 0.052415427 0.3209559 0.25707477 -0.21576515 0.26708585
0.1621777 0.32537046 0.16547179 -0.0832569 -0.10691643 0.064099915 0.10568905 -0.31152746
-0.29321876 0.04965552 0.066980824 0.2213269 -0.038632877 0.069165096 0.1565037 0.2446296
-0.26509595 -0.04906406 0.1308604 0.34106562 0.33421206 0.24317688 -0.12172531 0.11832326
-0.08763176 0.14540714 0.10944136 -0.1010537 0.016987279 -0.2435976 -0.018699912 0.2031216
-0.19240311 0.18466452 -0.023297008 -0.05989876 -0.26046926 0.12200079 -0.19012731 0.17668562
-0.19685589 -0.12688363 -0.1466113 0.16885068 -0.016062094 0.35933915 -0.13001575 -0.14425835
-0.22957872 -0.29032034 0.090829045 0.32416448 -0.29130507 0.06259391 -0.02769019 -0.20683566
-0.10555362 -0.010536643 -0.18445618 -0.13592759 0.31846005 0.013032913 -0.016511075 0.24558607
0.087302566 0.12955773 0.2687829 0.029325657 -0.14099878 0.17640445 0.14056553 -0.05402215
0.25982302 -0.05547389 0.028878473 -0.15744156 -0.15289348 -0.112084 -0.07428229 0.25625128
0.20471713 -0.1571092 -0.07470862 -0.09128728 -0.16769348 0.13424028 -0.25064883 -0.026576158
-0.16040118 -0.18016319 -0.10006809 0.11840357 0.250713 0.052116703 0.027859429 -0.07302678
-0.13644409 0.29113808 -0.02420885 -0.19410725 -0.10382237 0.24212098 0.12241009 0.18232009
-0.043150835 -0.07182956 0.039856378 0.17010784 -0.30003962 0.17219575 0.05432795 -0.22313072
0.08202267 -0.26697633 0.19012135 -0.11096212 -0.09279756 0.15122475 -0.21564342 0.35930902
00000000: 6bb3 00bc 46c7 a23e d22d d33c 8d39 f9bb
00000010: 35d4 a9bd aa90 b33d fe29 843e 06e5 33be
00000020: 3b77 5d3d 332f 73be 298b 0bbe 8b76 80bd
00000030: 9607 c3bd 32e6 103d fc12 25be 4c6d 91bd
00000040: 65f9 69be a472 c6bd 630c 0b3d 1438 54be
00000050: ef12 bdbd d3ad 3f3d affe 743e b1db 92be
00000060: 9244 efbd f0e5 d53d 469e 223e 6575 eb3a
00000070: 8913 493c 71fe 203e 92ad 9d3e af6d 72bd
00000080: bf78 d03c 31d8 f03d f273 4dbe eb77 cfbd
00000090: 5130 a2be b5ca bcbd 8608 6abe 5ce1 393e
000000a0: 383e cebd 65c7 8c3e 7c72 01be d54a 53be
000000b0: cf62 a13e 3587 8d3e 6c01 ebbd 39df 90be
000000c0: d90f 53be 8a9e dc3c ffa5 8fbe fa06 253e
000000d0: aaf4 0fbe 4894 2539 ae15 9a3d 309a 66be
000000e0: ea8a 1b3e 2201 b0bd 4dd3 213e 3325 5b3e
000000f0: 7097 763e 881c 09be 1768 873e eba9 f33d
00000100: 3229 9ebe 413b 5c3e b73a 883c da3b 45be
00000110: b8cc 07be 0bb9 16be 6bf7 913e e077 b13d
00000120: 66f8 523e 4c9f e6bd e711 3abe 9627 21be
00000130: d454 963d 995d 953e 9985 f7bd fd3f 8dbe
00000140: 42a7 94be 21ed 5e3d 4b9c 2a3e 340a 0cbe
00000150: 2f32 b43d e102 1dbe 4c9e 4c3e b206 afbe
00000160: 5d55 63be 167a 2a3e 7ee8 77bd 9e96 96be
00000170: 81d5 90be 6e84 fbbd 0cab 28be 927f 933d
00000180: b24b 95be bac5 38bd 2f63 163e 8277 7a3d
00000190: 06e0 7d3d 088a 90be e71a c8bd acca 5f3e
000001a0: a14b 0f3e 0233 65bb 4313 82be a77b 693e
000001b0: e737 69be 1403 95be 9b8b b33d 9a99 363d
000001c0: db24 343d e2cb a03e 2b5c b63d 8ef9 85be
000001d0: 7130 6f3e e442 23be edd3 ad3d ebe5 a93e
000001e0: 7dd6 553e 4eb0 263e b727 28bd 715b eebd
000001f0: ed48 fd3d f021 8ebe 6cda 263e c43b 5d3e
00000200: 7e69 3abe fa08 6abe d10c 9a3d 8fb1 563d
00000210: 5554 a43e 4e9f 833e 8af1 5cbe 7abf 883e
00000220: e911 263e f596 a63e 7071 293e 9882 aabd
00000230: 00f7 dabd d146 833d 8073 d83d 8780 9fbe
00000240: c520 96be 9663 4b3d 3e2d 893d 85a3 623e
00000250: 823d 1ebd 6ea6 8d3d 8242 203e 2f80 7a3e
00000260: a8ba 87be 65f7 48bd 4500 063e 27a0 ae3e
00000270: d81d ab3e 5c03 793e 1f4b f9bd 7753 f23d
00000280: 4878 b3bd 9ce5 143e cb22 e03d 3ef5 cebd
00000290: e828 8b3c a671 79be 8f30 99bc 1cff 4f3e
000002a0: 5205 45be b218 3d3e 5ed9 bebc 6758 75bd
000002b0: 3a5c 85be 8ddb f93d bcb0 42be 13ed 343e
000002c0: 9794 49be c8ed 01be 4621 16be 31e7 2c3e
000002d0: a794 83bc 4dfb b73e d922 05be 76b8 13be
000002e0: af16 6bbe dea4 94be 9404 ba3d e3f8 a53e
000002f0: f025 95be 3c31 803d 8ad6 e2bc bacc 53be
00000300: 7f2c d8bd e2a1 2cbc 15e2 3cbe 9a30 0bbe
00000310: 320d a33e 0088 553c 3c42 87bc ea7a 7b3e
00000320: b0cb b23d c8aa 043e ea9d 893e 5c3c f03c
00000330: fc61 10be 5ea3 343e 69f0 0f3e 5446 5dbd
00000340: 8607 853e 9738 63bd 8c92 ec3c 5c38 21be
00000350: 1c90 1cbe 4c8c e5bd 5021 98bd 5e33 833e
00000360: 5ea1 513e 3ce1 20be d500 99bd d3f4 babd
00000370: d7b7 2bbe 4976 093e 0b55 80be 3eb6 d9bc
00000380: 3540 24be b37c 38be 80f0 ccbd 927d f23d
00000390: 745d 803e 5378 553d 7539 e43c 108f 95bd
000003a0: 00b8 0bbe 0d10 953e a351 c6bc 0dc4 46be
000003b0: d3a0 d4bd 90ee 773e 24b2 fa3d 1eb2 3a3e
000003c0: eebe 30bd 601b 93bd 7140 233d c030 2e3e
000003d0: cb9e 99be 1554 303e fc86 5e3d 617c 64be
000003e0: 80fb a73d 1fb1 88be 2caf 423e 1c40 e3bd
000003f0: a60c bebd a9da 1a3e a1d1 5cbe 5af7 b73e

linear2.weight f4 [3, 256]
-0.05723079 -0.09060577 0.019230343 0.04480892 0.041303936 -0.024248527 0.014837996 0.056410544
0.04476558 0.0213877 -0.080186665 0.01103531 0.045811087 -0.06602562 0.0061459825 0.019670587
-0.035561178 -0.039096143 -0.08815446 0.018460738 0.08682577 -0.023929488 -0.028311443 0.017587548
-0.053791966 0.009144071 0.046260554 0.04462615 -0.059291925 0.007533413 -0.054213867 -0.05422721
-0.02738378 -0.10417341 0.016651612 -0.049383435 0.039327078 -0.028296907 0.056546047 0.019832026
-0.06257465 -0.03865162 -0.023763338 0.04161233 -0.087237194 -0.061758846 -0.04488599 0.015269572
-0.026864821 0.030058475 0.006554559 -0.06215095 0.011171703 -0.012525438 -0.04207441 -0.081835404
-0.04404966 -0.016511245 -0.04841492 -0.009644976 -0.082213104 0.07614302 0.0029065674 -0.070831
0.03395377 -0.025126567 -0.07790541 0.07561157 -0.098022826 0.037854686 -0.06304457 -0.0027362625
-0.07220756 -0.048029467 -0.018463748 -0.039056912 0.014859348 0.0055230297 0.012942436 -0.00291273
0.016017482 -0.024081638 -0.094864324 0.09900467 -0.0946676 -0.03245047 -0.05629345 -0.0061425194
-0.057929765 0.073803656 -0.09297659 -0.05197812 0.057021085 -0.065046765 -0.015725167 -0.033069145
0.03452213 0.0060591726 -0.086541586 -0.06800838 -0.007867126 0.030595012 -0.03253057 -0.06351405
-0.007424739 -0.051566884 -0.050290853 -0.08156756 -0.07834844 -0.05649267 -0.023305727 -0.057546806
-0.015017665 -0.03675084 -0.0548408 0.0528584 0.040087756 0.06509487 -0.08383036 -0.030777926
-0.0247065 0.021030528 0.07389245 -0.0380029 0.0033305679 0.11827775 -0.010266272 -0.034184836
-0.041181408 0.03215524 -0.057544023 0.012246198 -0.07073677 -0.028160607 0.01198104 0.009445133
-0.06910409 -0.042204153 -0.07060717 -0.016984133 -0.04023091 0.0032807991 -0.06955147 -0.014466416
-0.028612247 0.042180706 0.069924064 -0.04401174 0.0851139 0.016711848 -0.08489384 -0.07777336
-0.03562127 0.00019380903 5.584966e-06 -0.099667035 -0.053569168 -0.11427344 -0.06994119 -0.002721959
0.0493061 -0.0061345296 0.10671922 0.053358246 -0.021424817 0.0049168803 -0.041584812 -0.05169294
0.0030790898 -0.10346873 -0.008053817 0.123333134 -0.060561553 -0.081724524 -0.012579335 -0.018453658
0.092203364 -0.038061425 0.02919163 -0.063742116 0.0070049968 -0.048410777 0.015013621 0.010818733
0.026708426 -0.00071205234 -0.021062711 0.0075274934 0.013913556 -0.037836038 -0.077211276 -0.07339681
-0.07467608 -0.024406776 -0.00480484 0.023209771 -0.019286612 -0.032924976 -0.02512364 -0.033010945
0.0071750935 -0.0040527596 -0.0825866 0.020395901 0.075471364 -0.07358898 0.01631517 -0.039934274
0.010600684 -0.015164613 -0.0561583 -0.057067107 0.02785869 0.048892915 -0.029639665 -0.1108162
0.011713724 -0.094107926 0.0048492993 -0.108141884 -0.07666152 -0.08233943 0.056944925 -0.08010116
-0.0016128493 0.014207502 -0.0014973516 0.020598587 0.048987195 -0.036819898 0.0136110205 0.015284281
0.0017499421 -0.07247247 -0.046194527 -0.052616872 -0.06789062 -0.037735894 -0.03884538 -0.015175228
-0.031831507 -0.0075652855 -0.026913853 -0.024890115 -0.0043618977 -0.10331522 0.012243082 -0.055014335
-0.0030734763 -0.0033906896 -0.027583681 -0.09240815 -0.09709721 -0.0801702 -0.021768697 -0.060123626
00000000: d56a 6abd 858f b9bd f488 9d3c 8f89 373d
00000010: 512e 293d d9a4 c6bc 111b 733c be0e 673d
00000020: 1d5c 373d 4235 af3c e838 a4bd 72cd 343c
00000030: 68a4 3b3d 7138 87bd 3d64 c93b 3624 a13c
00000040: 99a8 11bd 4723 20bd 538a b4bd f93a 973c
00000050: b6d1 b13d c607 c4bc 66ed e7bc c313 903c
00000060: f754 5cbd 03d1 153c b57b 3d3d e9c9 363d
00000070: 17dc 72bd d9da f63b 5c0f 5ebd 5a1d 5ebd
00000080: f353 e0bc de58 d5bd f668 883c 4946 4abd
00000090: 6e15 213d eace e7bc d49c 673d c676 a23c
000000a0: 2327 80bd 2951 1ebd 55ab c2bc b171 2a3d
000000b0: 6aa9 b2bd d8f6 7cbd 5fda 37bd 3a2d 7a3c
000000c0: 9d13 dcbc 313d f63c a0c7 d63b ff91 7ebd
000000d0: 8509 373c 7f37 4dbc 3756 2cbd 5299 a7bd
000000e0: 6b6d 34bd 9742 87bc b94e 46bd f605 1ebc
000000f0: 585f a8bd dff0 9b3d 1c7c 3e3b d80f 91bd
00000100: 1c13 0b3d 3bd6 cdbc df8c 9fbd 3dda 9a3d
00000110: 31c0 c8bd 840d 1b3d 831d 81bd de52 33bb
00000120: 8fe1 93bd 8cba 44bd 4941 97bc 24fa 1fbd
00000130: 9f74 733c 88fa b43b 830c 543c 80e3 3ebb
00000140: 1837 833c db46 c5bc 3a48 c2bd f6c2 ca3d
00000150: 16e1 c1bd c9ea 04bd f693 66bd 3047 c9bb
00000160: c347 6dbd 5f26 973d 836a bebd 02e7 54bd
00000170: f18e 693d 3d37 85bd 11d2 80bc 8373 07bd
00000180: 1467 0d3d 068c c63b b73c b1bd fa47 8bbd
00000190: 1ee5 00bc 64a2 fa3c c63e 05bd a713 82bd
000001a0: 3a4b f3bb cc37 53bd c8fd 4dbd e50c a7bd
000001b0: 2675 a0bd dc64 67bd a7eb bebc 33b6 6bbd
000001c0: a70c 76bc 0c88 16bd bfa0 60bd 0d82 583d
000001d0: 0f33 243d 7650 853d 40af abbd fd21 fcbc
000001e0: 4965 cabc 3748 ac3c ed54 973d eea8 1bbd
000001f0: a845 5a3b 9b3b f23d de33 28bc 6605 0cbd
00000200: d6ad 28bd 37b5 033d 48b3 6bbd 47a4 483c
00000210: 71de 90bd 13b1 e6bc 204c 443c c2bf 1a3c
00000220: 7286 8dbd 43de 2cbd 7e9a 90bd 4f22 8bbc
00000230: 2bc9 24bd ad02 573b 0071 8ebd 8c04 6dbc
00000240: 3b64 eabc adc5 2c3d 5934 8f3d a745 34bd
00000250: 3250 ae3d 49e7 883c d2dc adbd a447 9fbd
00000260: 9ce7 11bd 3739 4b39 7e66 bb36 3b1e ccbd
00000270: 586b 5bbd 3108 eabd 543d 8fbd e562 32bb
00000280: 31f5 493d 2a04 c9bb 9b8f da3d 2d8e 5a3d
00000290: 1983 afbc c81d a13b d654 2abd fabb 53bd
000002a0: 8eca 493b 6ae7 d3bd 28f4 03bc 1596 fc3d
000002b0: 640f 78bd 305f a7bd 8e19 4ebc 202c 97bc
000002c0: 1ed5 bc3d 4ce6 1bbd 4923 ef3c 3a8b 82bd
000002d0: 2c8a e53b 614a 46bd b1fb 753c 0e41 313c
000002e0: a1cb da3c 06a9 3aba b58b acbc 31a9 f63b
000002f0: aff5 633c f6f9 1abd f220 9ebd 1151 96bd
00000300: c6ef 98bd b8f0 c7bc eb71 9dbb 6b22 be3c
00000310: f5fe 9dbc 57dc 06bd 18d0 cdbc 7c36 07bd
00000320: 0c1d eb3b 03cd 84bb 2a23 a9bd 4e15 a73c
00000330: bb90 9a3d d2b5 96bd 64a7 853c 1f92 23bd
00000340: 7eae 2d3c ff74 78bc 3f06 66bd 33bf 69bd
00000350: e837 e43c f043 483d e2ce f2bc 9bf3 e2bd
00000360: ebea 3f3c a8bb c0bd dfe6 9e3b 7e79 ddbd
00000370: b700 9dbd 93a1 a8bd 153f 693d 140c a4bd
00000380: 3e66 d3ba 95c6 683c c842 c4ba 5ebe a83c
00000390: cca6 483d 76d0 16bd c200 5f3c ec6a 7a3c
000003a0: 505e e53a 726c 94bd 7936 3dbd ca84 57bd
000003b0: 3d0a 8bbd f490 1abd 551c 1fbd 85a1 78bc
000003c0: c161 02bd 37e6 f7bb 717a dcbc 5be6 cbbc
000003d0: 40ee 8ebb ee96 d3bd 3597 483c b656 61bd
000003e0: 606c 49bb 5536 5ebb 2cf7 e1bc 7c40 bdbd
000003f0: e7da c6bd 4630 a4bd 4454 b2bc 3144 76bd

linear2.bias f4 [3]
-0.08842083 -0.08358894 -0.03280694
00000000: fb15 b5bd ae30 abbd 9260 06bd
