model/model.pth (torch, 17216 bytes, 4 tensors)

linear1.weight f4 [256, 11]
-0.1816578 0.06898618 -0.12701233 -0.20678654 -0.032052726 0.21977901 0.07385534 0.07682085
0.18942714 0.1083996 0.18136343 0.2839194 -0.014753103 0.121558875 -0.21595803 0.22855735
0.023778409 0.03921905 0.27065104 0.040275514 0.20460248 0.222772 -0.22411186 -0.031035691
0.27859837 0.16104162 0.11796841 0.041269153 -0.15163082 0.08981842 0.069508195 -0.060072362
-0.05578062 0.011303127 -0.061850026 -0.23904254 0.14741704 0.028402388 -0.03147006 0.10390213
0.27328163 0.007168293 -0.18379584 0.07256791 -0.25180337 0.17106867 0.19849193 -0.22316869
0.28985542 0.23227322 0.14776331 0.119802654 0.23202872 -0.27872762 -0.11306848 0.023738354
-0.06857732 0.015943855 0.027629793 -0.11576338 -0.018002778 -0.1516026 0.21641868 0.07181281
0.22051984 0.06575537 -0.26422155 -0.04716131 0.18790883 0.29246253 -0.19476724 -0.12582676
0.061423033 -0.09700151 0.2964418 0.038841873 0.11811444 0.17715573 0.28101385 0.01291883
0.045079917 -0.20362383 -0.26806343 -0.017152667 0.22002971 -0.26164877 0.21388608 0.22307312
0.17942345 0.21982163 -0.089625016 -0.26104206 0.1714397 -0.080736324 -0.1693604 -0.24641515
0.2753148 0.05880791 -0.1581568 -0.1449996 0.15553898 -0.19287248 0.019239783 -0.060897678
-0.2463168 -0.07942867 -0.212986 0.27458113 0.29915363 0.15593866 0.219324 -0.26434907
-0.1568288 -0.15399356 0.17540357 -0.14063144 -0.08018075 -0.25262672 -0.124390766 0.20946044
-0.083578944 -0.1957023 -0.16504821 0.12610018 -0.22228941 0.18827146 0.012757093 -0.06448281
-0.27526164 -0.27445468 -0.09007214 0.08365536 0.18512526 0.30067778 -0.17290631 -0.22048852
-0.107864365 -0.038456887 0.02021426 -0.16676812 0.22199404 -0.2084586 0.14661354 0.25790477
-0.09356965 0.16589984 0.28854448 -0.02284965 0.09763029 -0.2699951 -0.05204223 0.226475
0.080368906 -0.2588481 0.041105658 0.21064574 0.027282685 0.04151526 0.047972947 -0.05695291
-0.11800441 0.2807014 -0.06300041 -0.26322672 -0.21157333 0.05701378 -0.034422785 -0.12290254
0.020105511 -0.18903047 -0.17712626 -0.25550938 -0.19420552 -0.061340824 0.29321104 0.21457434
-0.15744598 0.102583766 0.14169532 -0.19614166 0.29239053 -0.053802326 -0.15621728 -0.16626121
-0.004022509 0.28987962 0.2050156 -0.078314885 -0.23512456 0.19138995 0.23428255 0.1716437
0.25840157 -0.26003265 -0.006381154 0.24523836 0.29408103 -0.19270635 -0.24207094 0.11149293
0.06819865 -0.22608484 0.14837971 0.052239805 -0.21305242 0.2750398 -0.25014743 0.021389425
0.1005325 0.2555896 -0.24800631 -0.053453 -0.019073933 0.24247509 -0.14535017 0.25545615
0.15693116 0.29850888 0.21189767 0.22849476 -0.14901543 -0.2928327 -0.051278025 0.28203762
-0.2507173 0.29474896 0.038099736 0.1443744 -0.21377268 0.29977453 -0.20583189 -0.07851857
-0.006061673 0.2716633 0.2260412 -0.29277438 0.2828759 0.05160883 0.038884312 -0.011741519
0.07504007 0.021066368 -0.00887391 0.18011296 -0.1720445 -0.015485764 0.29551238 0.16377312
-0.08402373 0.26027274 0.27600032 0.06740552 -0.21851367 -0.16919592 -0.06606735 0.031039953
00000000: 8104 3abe a048 8d3d 850f 02be dabf 53be
00000010: b849 03bd c00d 613e 7841 973d 4054 9d3d
00000020: 30f9 413e 9c00 de3d 56b7 393e e25d 913e
00000030: 00b7 71bc dcf3 f83d 1a24 5dbe f00a 6a3e
00000040: f0ca c23c 28a4 203d c692 8a3e f0f7 243d
00000050: 5083 513e 581e 643e 947d 65be 903e febc
00000060: 72a4 8e3e 18e8 243e 6c99 f13d d809 293d
00000070: 1c45 1bbe b8f2 b73d 505a 8e3d 700e 76bd
00000080: 387a 64bd c030 393c 7456 7dbd 91c7 74be
00000090: 7ef4 163e 20ac e83c c0e6 00bd a4ca d43d
000000a0: 92eb 8b3e 00e4 ea3b fa34 3cbe 7c9e 943d
000000b0: 5fec 80be a02c 2f3e 7841 4b3e 5586 64be
000000c0: ee67 943e 08d9 6d3e 444f 173e 185b f53d
000000d0: f098 6d3e 63b5 8ebe 7290 e7bd f076 c23c
000000e0: 4472 8cbd b09c 823c e057 e23c 5a15 edbd
000000f0: 907a 93bc b63d 1bbe dc9c 5d3e 9812 933d
00000100: f4cf 613e c0aa 863d 0c48 87be 382c 41bd
00000110: 2c6b 403e a6bd 953e 1071 47be bbd8 00be
00000120: b896 7b3d baa8 c6bd 38c7 973e a818 1f3d
00000130: fce5 f13d 5068 353e 0ce1 8f3e 80a9 533c
00000140: b8a5 383d c482 50be 9c3f 89be c083 8cbc
00000150: 784f 613e d4f6 85be f404 5b3e 486d 643e
00000160: c8ba 373e ec18 613e 528d b7bd 4ea7 85be
00000170: e48d 2f3e 1659 a5bd d06c 2dbe 4154 7cbe
00000180: 10f6 8c3e 90e0 703d dbf3 21be c67a 14be
00000190: 9c45 1f3e 5d80 45be c09c 9d3c d86f 79bd
000001a0: 793a 7cbe 80ab a2bd 0119 5abe e695 8c3e
000001b0: aa2a 993e 62ae 1f3e 7896 603e c358 87be
000001c0: bb97 20be 7db0 1dbe fe9c 333e b001 10be
000001d0: ce35 a4bd 4a58 81be 96c0 febd cc7c 563e
000001e0: 702b abbd 2f66 48be 6602 29be 6820 013e
000001f0: d69f 63be 3cca 403e 2003 513c 900f 84bd
00000200: 18ef 8cbe 5385 8cbe be77 b8bd 8053 ab3d
00000210: 7a91 3d3e 70f2 993e 5a0e 31be bec7 61be
00000220: fee7 dcbd f884 1dbd 6098 a53c 43c5 2abe
00000230: 6852 633e 2c76 55be dc21 163e 180c 843e
00000240: 72a1 bfbd a6e1 293e 1abc 933e 302f bbbc
00000250: 64f2 c73d cc3c 8abe 3c2a 55bd 10e9 673e
00000260: 7498 a43d bd87 84be 685e 283d 84b3 573e
00000270: f07f df3c e80b 2a3d 487f 443d 7447 69bd
00000280: 4cac f1bd 18b8 8f3e 5c06 81bd a7c5 86be
00000290: aea6 58be 4887 693d e8fe 0cbd 54b4 fbbd
000002a0: 50b4 a43c 3491 41be 9660 35be 20d2 82be
000002b0: d0dd 46be 8440 7bbd c21f 963e 60b9 5b3e
000002c0: 8539 21be 7017 d23d 9418 113e 5cd9 48be
000002d0: 36b4 953e d45f 5cbd 6cf7 1fbe 6140 2abe
000002e0: 40cf 83bb 1a6b 943e 9cef 513e 8e63 a0bd
000002f0: 7ec4 70be bafb 433e c4e7 6f3e 5ec3 2f3e
00000300: 364d 843e 0023 85be 0019 d1bb c41f 7b3e
00000310: ca91 963e d054 45be 72e1 77be 6856 e43d
00000320: bcab 8b3d c982 67be daf0 173e 68f9 553d
00000330: 6a2a 5abe 04d2 8c3e 5313 80be e038 af3c
00000340: fce3 cd3d a4dc 823e 5ef5 7dbe 88f1 5abd
00000350: f040 9cbc 644b 783e add6 14be 26cb 823e
00000360: 90b2 203e 28d6 983e b4fb 583e 88fa 693e
00000370: 8097 18be 2bee 95be e808 52bd 3c67 903e
00000380: 055e 80be 56e9 963e 780e 1c3d e2d6 133e
00000390: 3ae7 5abe 0c7c 993e 98c5 52be 58ce a0bd
000003a0: 00a1 c6bb 7417 8b3e 5877 673e 86e6 95be
000003b0: 1cd5 903e c863 533d 2845 1f3d 805f 40bc
000003c0: 9cae 993d 6093 ac3c e063 11bc 886f 383e
000003d0: 6f2c 30be 00b8 7dbc 664d 973e 24b4 273e
000003e0: a214 acbd 7842 853e ea4f 8d3e e80b 8a3d
000003f0: 0cc2 5fbe b241 2dbe 524e 87bd 8047 fe3c

linear1.bias f4 [256]
-0.16870332 -0.09612279 0.0343363 0.032042086 0.23614198 -0.06592117 -0.037704438 -0.018196315
-0.007507831 -0.14138402 -0.08351292 -0.19850391 -0.18686146 0.07850468 -0.091739506 -0.18513307
-0.053365827 -0.23491912 -0.14344923 0.14423135 0.24258101 -0.008627027 -0.004785806 0.12213686
-0.12557475 0.07679671 -0.15947072 -0.0016001165 -0.04266411 -0.25016466 -0.17462794 -0.24991947
0.0042661726 0.106432736 0.29382586 -0.029879391 -0.26202357 0.15916711 -0.060590625 -0.06446667
-0.27970374 0.036667466 0.21914047 -0.020300925 0.09013778 0.04320109 0.06390163 -0.23957679
0.030045867 0.22760469 0.20731598 0.11849913 0.09214106 0.0786688 0.06636584 -0.22581476
0.057340443 -0.23298308 0.076838285 -0.22136399 0.17320606 0.29923338 -0.2546766 0.049203724
0.11331588 0.16419274 0.008974165 0.016259044 -0.08355719 -0.08090177 0.15925446 0.24633688
-0.024460107 0.0019454956 0.2271992 0.082225084 0.03748691 -0.19462441 -0.17119431 -0.16204238
0.16826326 -0.12584008 0.19695127 0.11852175 0.21686614 0.11717206 0.23950833 -0.08472411
-0.03296104 -0.06219271 -0.05630137 0.009737492 -0.2238695 -0.27629396 -0.25764203 0.09240544
-0.2628548 0.12609625 0.21370012 -0.2742454 -0.24746487 -0.082760945 -0.11094166 -0.09547581
-0.2161578 -0.25043708 0.0923855 0.18745202 0.17379889 0.21683687 -0.18675448 0.28243923
-0.23213886 -0.022004098 -0.043115407 0.1333313 -0.25642997 0.16739982 0.20815694 0.103099674
-0.2796493 0.2824697 -0.25793 0.25562292 -0.04878387 -0.16241395 -0.19047979 -0.16191104
-0.22892228 0.081626415 0.29047585 -0.27458984 0.10148677 -0.25659412 -0.073489934 -0.07796861
0.23757905 0.12838322 -0.07967989 -0.14164643 0.2706012 0.10181525 -0.23731418 -0.011022508
0.14000905 -0.13267738 0.29441613 -0.21920472 0.29376656 -0.24846059 -0.2670604 0.2692113
0.006360978 -0.16635455 -0.09811348 -0.1874048 0.0021822453 -0.3010437 0.26936877 0.13050649
-0.16867629 0.28178155 0.085899055 -0.06978439 0.17522046 0.24086952 -0.20651308 0.09252551
-0.21811582 0.2961896 0.07651821 0.24679863 -0.0605357 -0.16812705 0.1947276 -0.027565807
-0.09174967 -0.2578146 0.11058271 0.0037053525 -0.275289 -0.13673595 0.27422535 0.10980734
-0.18385309 0.22247589 0.047510505 -0.24439077 -0.22840741 -0.13241144 -0.18668813 -0.22463167
-0.25106958 -0.27060947 -0.1398605 0.17376417 0.013118595 -0.08451381 0.13242665 -0.039099216
-0.10708484 -0.21351106 -0.12161443 -0.25499532 0.22688818 -0.036628664 0.26785344 0.22204024
0.1685214 -0.0068417788 0.101201326 0.17355251 -0.25239947 -0.13040319 0.09817597 -0.015519798
0.051172733 -0.20020466 0.15933716 0.012355387 -0.060554564 -0.07869583 -0.28213412 0.1410757
-0.2565992 -0.19251315 -0.23768756 -0.17903735 -0.20364484 0.062242985 0.20289224 -0.07525474
0.06803864 0.2603259 -0.27240375 -0.2514649 -0.19094273 -0.050712913 0.18484768 0.03933668
0.17707393 -0.29296532 0.108243346 0.104096234 -0.2702484 -0.25128514 0.29263735 -0.07133296
-0.065236926 -0.29307285 0.30006653 0.10002524 -0.18403068 -0.22738367 -0.07006812 0.124149054
00000000: 90c0 2cbe 06dc c4bd 38a4 0c3d 903e 033d
00000010: 34cf 713e ae01 87bd f86f 1abd 7010 95bc
00000020: 4004 f6bb f9c6 10be d208 abbd 9c44 4bbe
00000030: 9c58 3fbe 10c7 a03d ece1 bbbd 8693 3dbe
00000040: 2096 5abd a38e 70be 5be4 12be 62b1 133e
00000050: 2867 783e 6058 0dbc 40d2 9cbb e422 fa3d
00000060: ab96 00be 9847 9d3d 4b4c 23be 00bb d1ba
00000070: 90c0 2ebd 9515 80be abd1 32be e4ea 7fbe
00000080: 40cb 8b3b 68f9 d93d 5870 963e a0c5 f4bc
00000090: f427 86be b4fc 223e e02d 78bd 1a07 84bd
000000a0: 5435 8fbe a030 163d 5c66 603e 204e a6bc
000000b0: 289a b83d a0f3 303d dcde 823d 9e53 75be
000000c0: c022 f63c 3411 693e a44a 543e acaf f23d
000000d0: 74b4 bc3d 1c1d a13d d0ea 873d fc3b 67be
000000e0: d0dd 6a3d 1e93 6ebe 645d 9d3d 3ead 62be
000000f0: ee5c 313e 1e35 993e f964 82be d889 493d
00000100: 2812 e83d 2422 283e 6008 133c b031 853c
00000110: 0820 abbd d4af a5bd 9a13 233e bc3f 7c3e
00000120: 9060 c8bc 0000 ff3a e8a6 683e a065 a83d
00000130: e08b 193d 9f4b 47be 904d 2fbe 70ee 25be
00000140: 344d 2c3e 39dc 00be 98ad 493e 88bb f23d
00000150: 2812 5e3e e8f7 ef3d ac41 753e d683 adbd
00000160: 2802 07bd c8bd 7ebd 449c 66bd 008a 1f3c
00000170: 0c3e 65be 6776 8dbe a8e9 83be 103f bd3d
00000180: e894 86be 601f 013e 34d4 5a3e e569 8cbe
00000190: 6e67 7dbe 927e a9bd 6235 e3bd d288 c3bd
000001a0: 7858 5dbe 4a39 80be 9c34 bd3d 6cf3 3f3e
000001b0: 56f8 313e 7c0a 5e3e 913c 3fbe e09b 903e
000001c0: cfb5 6dbe f041 b4bc c899 30bd 0088 083e
000001d0: ca4a 83be dc6a 2b3e 1827 553e ec25 d33d
000001e0: 312e 8fbe de9f 903e 670f 84be 02e1 823e
000001f0: 98d1 47bd d84f 26be 220d 43be 02cc 25be
00000200: 9a6a 6abe c02b a73d 40b9 943e 0a97 8cbe
00000210: 4cd8 cf3d 4e60 83be e481 96bd 02ae 9fbd
00000220: ec47 733e e476 033e 362f a3bd c30b 11be
00000230: 3e8c 8a3e 8484 d03d 7d02 73be c097 34bc
00000240: 885e 0f3e 94dc 07be b6bd 963e 3477 60be
00000250: 9268 963e 746c 7ebe 24bc 88be 10d6 893e
00000260: c06f d03b d958 2abe b8ef c8bd 0be7 3fbe
00000270: 0004 0f3b 6622 9abe b4ea 893e 7ea3 053e
00000280: 7ab9 2cbe ac45 903e d8eb af3d 1eeb 8ebd
00000290: fe6c 333e 80a6 763e 2a78 53be 047e bd3d
000002a0: c159 5fbe 2aa6 973e 94b5 9c3d c8b8 7c3e
000002b0: 48f4 77bd 7f29 2cbe ac66 473e b0d1 e1bc
000002c0: 40e7 bbbd 4600 84be 3079 e23d 80d5 723b
000002d0: aef2 8cbe 8204 0cbe 4467 8c3e ace2 e03d
000002e0: fc43 3cbe b8d0 633e 609a 423d 9341 7abe
000002f0: a2e3 69be dd96 07be 2c2b 3fbe d805 66be
00000300: 318c 80be 538d 8abe 9737 0fbe 3cef 313e
00000310: 60ef 563c 9415 adbd da9a 073e 8026 20bd
00000320: 4c4f dbbd a5a2 5abe fc10 f9bd bf8e 82be
00000330: 6055 683e f007 16bd 1624 893e 845e 633e
00000340: e090 2c3e 0031 e0bb a442 cf3d c0b7 313e
00000350: 813a 81be 6a88 05be 7c10 c93d c046 7ebc
00000360: 809a 513d 7302 4dbe 4829 233e 406e 4a3c
00000370: 1008 78bd 482b a1bd e273 90be 2676 103e
00000380: f860 83be 2b22 45be 5e64 73be 9155 37be
00000390: 4688 50be 80f2 7e3d fcc2 4f3e 281f 9abd
000003a0: d857 8b3d 7049 853e 8178 8bbe 02c0 80be
000003b0: 7e86 43be 58b8 4fbd b648 3d3e 801f 213d
000003c0: de52 353e 8dff 95be b0ae dd3d 6830 d53d
000003d0: 005e 8abe 72a8 80be 90d4 953e 0417 92bd
000003e0: f09a 85bd a50d 96be 52a2 993e 08da cc3d
000003f0: 8a72 3cbe 44d7 68be e07f 8fbd dc41 fe3d

linear2.weight f4 [3, 256]
0.0290972 0.0061527863 -0.054714583 0.040536143 -0.06161248 -0.054838814 0.0133555755 -0.018003307
0.054941453 0.051500246 0.00788036 -0.04943064 0.04493119 -0.00029794872 0.03878714 -0.009909712
0.0007445514 -0.039665446 -0.032487452 0.037773415 0.034931332 0.061043195 -0.016196385 0.045137748
-0.015971199 -0.022642165 0.050811864 -0.024599 0.048814267 -0.02888053 -0.044916354 -0.036538467
0.023653008 0.032504246 0.027593985 0.04914964 -0.011213988 0.032956764 0.035733722 0.05552987
0.041255876 0.004970655 0.050355844 -0.011050537 -0.015246861 -0.0014080852 -0.04010821 0.059976347
0.0326119 0.030023403 -0.0131117925 -0.00774125 -0.02508878 0.0069552287 -0.008034907 -0.0481098
-0.006775871 -0.011453204 0.01431115 0.06170605 -0.009956934 0.04166518 -0.033292316 0.028683625
-0.048396006 0.036720566 0.046117947 0.05608037 -0.009614542 -0.022698157 -0.00020606071 0.048136994
0.04269073 0.03078667 -0.0155839175 -0.03983689 0.011535145 0.052335605 -0.0017710626 0.05441224
-0.059282884 -0.030493364 -0.023970358 0.04650735 0.02087155 -0.058944643 0.022071593 -0.01090616
-0.038620487 0.05788075 0.0027499348 -0.013029881 -0.05663532 -0.002458185 -0.054429583 0.036681347
0.038677298 0.018053323 -0.0038426071 0.018459454 -0.025639862 0.005242273 -0.046627738 -0.061492562
-0.054444797 0.036707833 0.025387831 0.03666672 -0.04871139 -0.03655657 0.030912742 0.03946066
-0.0018843487 -0.026406579 0.017114617 0.056686155 -0.060163543 -0.028890878 0.023143604 0.05537174
-0.055655368 -0.0067150444 -0.056904964 0.02614817 -0.037988186 0.030449197 -0.017762259 0.048372425
-0.053343102 -0.04238999 -0.039909393 -0.0045099854 0.011709638 0.040281042 -0.046196364 -0.027805217
-0.0356709 -0.062036432 0.049995184 -0.030950986 -0.0031653345 -0.0013767034 -0.021657191 0.053039305
-0.034558132 0.030209623 -0.027309217 0.03281588 0.046484314 0.033810757 0.056114428 -0.05521016
0.038066104 0.030022182 -0.03206473 -0.041664876 -0.061031595 0.031614028 0.0106883645 -0.035352
0.04974001 -0.04860209 -0.033135302 0.044489518 -0.0006752014 0.04245595 0.028784983 -0.023604035
-0.007827215 0.023298718 0.06146674 0.026160076 0.000254184 0.0313079 -0.00019628555 -0.06164919
0.016658619 -0.00791055 -0.04349293 -0.013480522 -0.004517533 -0.057855926 -0.040887162 -0.022844076
0.02717533 -0.0025257021 0.04142507 0.00178428 0.013771944 0.030797653 0.048336938 -0.049125038
-0.010224365 0.031502463 0.04330696 -0.045609914 -0.042738557 -0.040527314 0.061242685 0.018972702
-0.024767168 0.023326002 0.04417596 -0.031953417 -0.00843107 -0.03351409 0.051816612 0.03555078
-0.006897241 -0.057993323 -0.030818447 0.035438478 0.027593605 0.031779245 0.019923389 0.021556146
-0.043316387 -0.05647058 0.053720675 -0.035037555 -0.0013020411 -0.04709456 -0.018005945 0.0063123256
0.025734507 -0.055846423 0.05637166 -0.046584018 -0.03556645 0.037296712 -0.026616365 0.05681561
-0.06150452 0.0030302182 -0.034192644 -0.0509739 -0.054534763 0.024366632 0.02400212 -0.031035915
0.045127295 -0.032174468 -0.009687938 0.017745785 -0.0152000785 -0.040848948 -0.04796906 -0.05536826
-0.047867797 0.051977724 0.014020041 0.012651198 -0.060166597 0.022940345 -0.059254244 0.034764856
00000000: 405d ee3c 509d c93b 661c 60bd 3a09 263d
00000010: 5e5d 7cbd aa9e 60bd 58d1 5a3c ac7b 93bc
00000020: 4a0a 613d ecf1 523d a01c 013c c877 4abd
00000030: c409 383d 0036 9cb9 44df 1e3d 585c 22bc
00000040: 002e 433a 3c78 22bd 9011 05bd 4cb8 1a3d
00000050: 2814 0f3d 6e08 7a3d 48ae 84bc 5ce2 383d
00000060: 08d6 82bc 107c b9bc 1a20 503d d883 c9bc
00000070: 78f1 473d dc96 ecbc 36fa 37bd 5ca9 15bd
00000080: f4c3 c13c 2c23 053d c80c e23c 2251 493d
00000090: e0ba 37bc acfd 063d 865d 123d 4a73 633d
000000a0: ecfb 283d e0e0 a23b ee41 4e3d 500d 35bc
000000b0: f8cd 79bc 808f b8ba 8248 24bd c2a9 753d
000000c0: 0e94 053d a4f3 f53c d8d2 56bc 50aa fdbb
000000d0: fc86 cdbc b0e8 e33b d8a4 03bc c80e 45bd
000000e0: 2008 debb 38a6 3bbc 5079 6a3c 7cbf 7c3d
000000f0: 6822 23bc 1ca9 2a3d 865d 08bd ecf9 ea3c
00000100: e43a 46bd 4e68 163d 2ce6 3c3d 88b4 653d
00000110: 5086 1dbc 7cf1 b9bc 0012 58b9 4c2b 453d
00000120: 7adc 2e3d 5434 fc3c b053 7fbc 022c 23bd
00000130: e8fd 3c3c dc5d 563d 0023 e8ba 5edf 5e3d
00000140: 9cd2 72bd 38cd f9bc 7c5d c4bc 7e7e 3e3d
00000150: d0fa aa3c f06f 71bd 7ccf b43c c0af 32bc
00000160: 8430 1ebd 5e14 6d3d 4038 343b 487b 55bc
00000170: 70fa 67bd 8019 21bb 8ef1 5ebd 2e3f 163d
00000180: 166c 1e3d 90e4 933c 40d4 7bbb 4838 973c
00000190: b00a d2bc 60c7 ab3b bafc 3ebd a0df 7bbd
000001a0: 8201 5fbd f45a 163d 24fa cf3c d82f 163d
000001b0: 9885 47bd 58bc 15bd b83c fd3c 80a1 213d
000001c0: 40fc f6ba 9c52 d8bc f433 8c3c be2f 683d
000001d0: 0c6e 76bd 90ac ecbc a897 bd3c 7acd 623d
000001e0: e2f6 63bd e009 dcbb 2e15 69bd b034 d63c
000001f0: 8099 1bbd 9870 f93c 2882 91bc 2a22 463d
00000200: 4c7e 5abd 20a1 2dbd 0878 23bd 80c8 93bb
00000210: c8d9 3f3c bcfd 243d 6638 3dbd c4c7 e3bc
00000220: a61b 12bd ea19 7ebd c0c7 4c3d ec8c fdbc
00000230: 8071 4fbb 8072 b4ba 6c6a b1bc be3f 593d
00000240: d48c 0dbd 2c7a f73c 94b7 dfbc f269 063d
00000250: 5666 3e3d 267d 0a3d 3ed8 653d 0c24 62bd
00000260: 34eb 1b3d 14f1 f53c 4e56 03bd caa8 2abd
00000270: 44fc 79bd b67d 013d 401e 2f3c 42cd 10bd
00000280: 2ebc 4b3d fc12 47bd e2b8 07bd a43a 363d
00000290: 0000 31ba 4ae6 2d3d 7cce eb3c 405d c1bc
000002a0: b83d 00bc f4dc be3c 8cc4 7b3d a84d d63c
000002b0: 0044 8539 b63c 003d 00d2 4db9 dc83 7cbd
000002c0: a877 883c 409b 01bc a425 32bd 68dd 5cbc
000002d0: d007 94bb 56fa 6cbd 4c79 27bd 8023 bbbc
000002e0: cc9e de3c 4086 25bb 56ad 293d 80de e93a
000002f0: b8a3 613c 5c4b fc3c f4fc 453d 5637 49bd
00000300: 1884 27bc ba08 013d a462 313d 76d1 3abd
00000310: a00e 2fbd f8ff 25bd 9cd9 7a3d a46c 9b3c
00000320: 84e4 cabc 2c16 bf3c daf1 343d 96e1 02bd
00000330: 7822 0abc 1246 09bd a83d 543d b29d 113d
00000340: 4002 e2bb 688a 6dbd f876 fcbc f027 113d
00000350: fc0b e23c f42a 023d 6036 a33c 8496 b03c
00000360: 866c 31bd b24d 67bd 360a 5c3d 8a83 0fbd
00000370: 40a9 aaba 3ae6 40bd 3481 93bc a0d7 ce3b
00000380: 2cd1 d23c 38bf 64bd f8e5 663d e2ce 3ebd
00000390: 20ae 11bd 70c4 183d 900a dabc 7cb7 683d
000003a0: 2aec 7bbd a096 463b 960d 0cbd 02ca 50bd
000003b0: d85f 5fbd 889c c73c 18a0 c43c 083f febc
000003c0: 66d7 383d 60c9 03bd 28ba 1ebc 9c5f 913c
000003d0: c009 79bc 3a51 27bd 347b 44bd d4c9 62bd
000003e0: 0611 44bd 98e6 543d 50b4 653c f846 4f3c
000003f0: 4071 76bd 64ed bb3c 94b4 72bd 9865 0e3d

linear2.bias f4 [3]
-0.051749438 -0.04581058 -0.044312432
00000000: 38f7 53bd e0a3 3bbd f480 35bd
